…
2018-11-22 13:48:23.214840: I tensorflow/core/platform/cpu_feature_guard.cc:141] Your CPU supports instructions that this TensorFlow binary was not compiled to use: SSE4.1 SSE4.2 AVX AVX2 FMA
2018-11-22 13:48:23.219877: I tensorflow/core/common_runtime/process_util.cc:69] Creating new thread pool with default inter op setting: 2. Tune using inter_op_parallelism_threads for best performance.
(?, 8, 19, 256)
__________________________________________________________________________________________________
Layer (type)                    Output Shape         Param #     Connected to                     
==================================================================================================
the_input (InputLayer)          (None, 64, 300, 1)   0                                            
__________________________________________________________________________________________________
conv1 (Conv2D)                  (None, 64, 300, 16)  160         the_input[0][0]                  
__________________________________________________________________________________________________
batch_normalization_1 (BatchNor (None, 64, 300, 16)  64          conv1[0][0]                      
__________________________________________________________________________________________________
max_pooling2d_1 (MaxPooling2D)  (None, 32, 150, 16)  0           batch_normalization_1[0][0]      
__________________________________________________________________________________________________
conv2 (Conv2D)                  (None, 32, 150, 32)  4640        max_pooling2d_1[0][0]            
__________________________________________________________________________________________________
batch_normalization_2 (BatchNor (None, 32, 150, 32)  128         conv2[0][0]                      
__________________________________________________________________________________________________
max_pooling2d_2 (MaxPooling2D)  (None, 16, 75, 32)   0           batch_normalization_2[0][0]      
__________________________________________________________________________________________________
conv3 (Conv2D)                  (None, 16, 75, 64)   18496       max_pooling2d_2[0][0]            
__________________________________________________________________________________________________
batch_normalization_3 (BatchNor (None, 16, 75, 64)   256         conv3[0][0]                      
__________________________________________________________________________________________________
conv4 (Conv2D)                  (None, 16, 75, 128)  73856       batch_normalization_3[0][0]      
__________________________________________________________________________________________________
batch_normalization_4 (BatchNor (None, 16, 75, 128)  512         conv4[0][0]                      
__________________________________________________________________________________________________
max_pooling2d_3 (MaxPooling2D)  (None, 8, 38, 128)   0           batch_normalization_4[0][0]      
__________________________________________________________________________________________________
conv5 (Conv2D)                  (None, 8, 38, 128)   147584      max_pooling2d_3[0][0]            
__________________________________________________________________________________________________
batch_normalization_5 (BatchNor (None, 8, 38, 128)   512         conv5[0][0]                      
__________________________________________________________________________________________________
conv6 (Conv2D)                  (None, 8, 38, 128)   147584      batch_normalization_5[0][0]      
__________________________________________________________________________________________________
batch_normalization_6 (BatchNor (None, 8, 38, 128)   512         conv6[0][0]                      
__________________________________________________________________________________________________
max_pooling2d_4 (MaxPooling2D)  (None, 8, 19, 128)   0           batch_normalization_6[0][0]      
__________________________________________________________________________________________________
conv7 (Conv2D)                  (None, 8, 19, 256)   131328      max_pooling2d_4[0][0]            
__________________________________________________________________________________________________
batch_normalization_7 (BatchNor (None, 8, 19, 256)   1024        conv7[0][0]                      
__________________________________________________________________________________________________
conv8 (Conv2D)                  (None, 8, 19, 256)   262400      batch_normalization_7[0][0]      
__________________________________________________________________________________________________
batch_normalization_8 (BatchNor (None, 8, 19, 256)   1024        conv8[0][0]                      
__________________________________________________________________________________________________
reshape (Reshape)               (None, 19, 2048)     0           batch_normalization_8[0][0]      
__________________________________________________________________________________________________
dense1 (Dense)                  (None, 19, 32)       65568       reshape[0][0]                    
__________________________________________________________________________________________________
gru1 (GRU)                      (None, 19, 128)      61824       dense1[0][0]                     
__________________________________________________________________________________________________
gru1_b (GRU)                    (None, 19, 128)      61824       dense1[0][0]                     
__________________________________________________________________________________________________
add_1 (Add)                     (None, 19, 128)      0           gru1[0][0]                       
                                                                 gru1_b[0][0]                     
__________________________________________________________________________________________________
gru2 (GRU)                      (None, 19, 128)      98688       add_1[0][0]                      
__________________________________________________________________________________________________
gru2_b (GRU)                    (None, 19, 128)      98688       add_1[0][0]                      
__________________________________________________________________________________________________
concatenate_1 (Concatenate)     (None, 19, 256)      0           gru2[0][0]                       
                                                                 gru2_b[0][0]                     
__________________________________________________________________________________________________
dense2 (Dense)                  (None, 19, 17)       4369        concatenate_1[0][0]              
__________________________________________________________________________________________________
softmax (Activation)            (None, 19, 17)       0           dense2[0][0]                     
==================================================================================================
Total params: 1,181,041
Trainable params: 1,179,025
Non-trainable params: 2,016
__________________________________________________________________________________________________
Epoch 1/50

   1/2000 [..............................] - ETA: 7:06:32 - loss: 36.9587
…
